2025-02-28 07:20:43,090 [INFO] Namespace(num_workers=4, data_dir='E:\\BaiduNetdiskDownload\\hyjj_signal_demod\\train_data', train_ratio=0.999, sample_len=2000, flip_rate=0.5, lr=0.001, weight_decay=1e-05, use_scheduler=True, epoch_count=100, val_per_epoch=1, batch_size=64, device='cuda', seed=114514, output_dir='./output_v7')
2025-02-28 07:20:43,653 [INFO] TRAIN DATA COUNT: 179813, VAL DATA COUNT: 180
2025-02-28 07:20:45,082 [INFO] MODEL AMR: BiLSTMModel2AMR(
  (feature_extractor): CNNFeatureExtractor(
    (conv1): Conv1d(2, 16, kernel_size=(3,), stride=(1,), padding=(1,))
    (bn1): BatchNorm1d(16, eps=1e-05, momentum=0.1, affine=True, track_running_stats=True)
    (layers): ModuleList(
      (0): ResidualBlock(
        (conv1): Conv1d(16, 32, kernel_size=(3,), stride=(1,), padding=(1,))
        (bn1): BatchNorm1d(32, eps=1e-05, momentum=0.1, affine=True, track_running_stats=True)
        (conv2): Conv1d(32, 32, kernel_size=(3,), stride=(1,), padding=(1,))
        (bn2): BatchNorm1d(32, eps=1e-05, momentum=0.1, affine=True, track_running_stats=True)
        (shortcut): Sequential(
          (0): Conv1d(16, 32, kernel_size=(1,), stride=(1,))
          (1): BatchNorm1d(32, eps=1e-05, momentum=0.1, affine=True, track_running_stats=True)
        )
      )
      (1): ResidualBlock(
        (conv1): Conv1d(32, 64, kernel_size=(3,), stride=(1,), padding=(1,))
        (bn1): BatchNorm1d(64, eps=1e-05, momentum=0.1, affine=True, track_running_stats=True)
        (conv2): Conv1d(64, 64, kernel_size=(3,), stride=(1,), padding=(1,))
        (bn2): BatchNorm1d(64, eps=1e-05, momentum=0.1, affine=True, track_running_stats=True)
        (shortcut): Sequential(
          (0): Conv1d(32, 64, kernel_size=(1,), stride=(1,))
          (1): BatchNorm1d(64, eps=1e-05, momentum=0.1, affine=True, track_running_stats=True)
        )
      )
      (2): ResidualBlock(
        (conv1): Conv1d(64, 128, kernel_size=(3,), stride=(1,), padding=(1,))
        (bn1): BatchNorm1d(128, eps=1e-05, momentum=0.1, affine=True, track_running_stats=True)
        (conv2): Conv1d(128, 128, kernel_size=(3,), stride=(1,), padding=(1,))
        (bn2): BatchNorm1d(128, eps=1e-05, momentum=0.1, affine=True, track_running_stats=True)
        (shortcut): Sequential(
          (0): Conv1d(64, 128, kernel_size=(1,), stride=(1,))
          (1): BatchNorm1d(128, eps=1e-05, momentum=0.1, affine=True, track_running_stats=True)
        )
      )
    )
    (pool): MaxPool1d(kernel_size=2, stride=2, padding=0, dilation=1, ceil_mode=False)
    (dropout): Sequential(
      (0): Dropout(p=0.1, inplace=False)
      (1): Conv1d(128, 128, kernel_size=(1,), stride=(1,))
    )
  )
  (lstm_amr): LSTM(128, 128, batch_first=True, bidirectional=True)
  (attention_amr): Attention(
    (attn): Linear(in_features=256, out_features=1, bias=True)
  )
  (fc_amr): Linear(in_features=256, out_features=10, bias=True)
)
2025-02-28 07:20:45,084 [INFO] MODEL CW: BiLSTMModel2CW(
  (feature_extractor): CNNFeatureExtractor(
    (conv1): Conv1d(2, 16, kernel_size=(3,), stride=(1,), padding=(1,))
    (bn1): BatchNorm1d(16, eps=1e-05, momentum=0.1, affine=True, track_running_stats=True)
    (layers): ModuleList(
      (0): ResidualBlock(
        (conv1): Conv1d(16, 32, kernel_size=(3,), stride=(1,), padding=(1,))
        (bn1): BatchNorm1d(32, eps=1e-05, momentum=0.1, affine=True, track_running_stats=True)
        (conv2): Conv1d(32, 32, kernel_size=(3,), stride=(1,), padding=(1,))
        (bn2): BatchNorm1d(32, eps=1e-05, momentum=0.1, affine=True, track_running_stats=True)
        (shortcut): Sequential(
          (0): Conv1d(16, 32, kernel_size=(1,), stride=(1,))
          (1): BatchNorm1d(32, eps=1e-05, momentum=0.1, affine=True, track_running_stats=True)
        )
      )
      (1): ResidualBlock(
        (conv1): Conv1d(32, 64, kernel_size=(3,), stride=(1,), padding=(1,))
        (bn1): BatchNorm1d(64, eps=1e-05, momentum=0.1, affine=True, track_running_stats=True)
        (conv2): Conv1d(64, 64, kernel_size=(3,), stride=(1,), padding=(1,))
        (bn2): BatchNorm1d(64, eps=1e-05, momentum=0.1, affine=True, track_running_stats=True)
        (shortcut): Sequential(
          (0): Conv1d(32, 64, kernel_size=(1,), stride=(1,))
          (1): BatchNorm1d(64, eps=1e-05, momentum=0.1, affine=True, track_running_stats=True)
        )
      )
      (2): ResidualBlock(
        (conv1): Conv1d(64, 128, kernel_size=(3,), stride=(1,), padding=(1,))
        (bn1): BatchNorm1d(128, eps=1e-05, momentum=0.1, affine=True, track_running_stats=True)
        (conv2): Conv1d(128, 128, kernel_size=(3,), stride=(1,), padding=(1,))
        (bn2): BatchNorm1d(128, eps=1e-05, momentum=0.1, affine=True, track_running_stats=True)
        (shortcut): Sequential(
          (0): Conv1d(64, 128, kernel_size=(1,), stride=(1,))
          (1): BatchNorm1d(128, eps=1e-05, momentum=0.1, affine=True, track_running_stats=True)
        )
      )
    )
    (pool): MaxPool1d(kernel_size=2, stride=2, padding=0, dilation=1, ceil_mode=False)
    (dropout): Sequential(
      (0): Dropout(p=0.1, inplace=False)
      (1): Conv1d(128, 128, kernel_size=(1,), stride=(1,))
    )
  )
  (lstm_cw): LSTM(128, 128, batch_first=True, bidirectional=True)
  (attention_cw): Attention(
    (attn): Linear(in_features=256, out_features=1, bias=True)
  )
  (fc_cw): Linear(in_features=256, out_features=1, bias=True)
)
2025-02-28 07:20:45,084 [INFO] OPTIMIZER AMR: Adam (
Parameter Group 0
    amsgrad: False
    betas: (0.9, 0.999)
    capturable: False
    differentiable: False
    eps: 1e-08
    foreach: None
    fused: False
    lr: 0.001
    maximize: False
    weight_decay: 1e-05
), SCHEDULER AMR: <torch.optim.lr_scheduler.ReduceLROnPlateau object at 0x000001D698DAED70>
…
